…
=== Using cuda(model.triplet.model_triplet_to1d640_1dde1_embedding). ===


=== Using cuda(model.AE.model_ae). ===


=== Using cuda(model.demucs.model_demucs). ===


=== Using cuda(model.demucs.model_hdemucs). ===


=== Using cuda(model.jnet.model_jnet_attention). ===

[2023-11-07 01:11:19,111][torch.distributed.nn.jit.instantiator][INFO] - Created a temporary directory at /tmp/tmp8xzepogw
[2023-11-07 01:11:19,112][torch.distributed.nn.jit.instantiator][INFO] - Writing /tmp/tmp8xzepogw/_remote_module_non_scriptable.py
UNetForTriplet_2d_de5_to1d640(
  (encoder): UNetEncoder(
    (conv1): Conv2d(
      (conv): Sequential(
        (0): Conv2d(1, 16, kernel_size=(5, 5), stride=(2, 2), padding=(2, 2))
        (bn): BatchNorm2d(16, eps=1e-05, momentum=0.1, affine=True, track_running_stats=True)
        (rl): LeakyReLU(negative_slope=0.2)
      )
    )
    (conv2): Conv2d(
      (conv): Sequential(
        (0): Conv2d(16, 32, kernel_size=(5, 5), stride=(2, 2), padding=(2, 2))
        (bn): BatchNorm2d(32, eps=1e-05, momentum=0.1, affine=True, track_running_stats=True)
        (rl): LeakyReLU(negative_slope=0.2)
      )
    )
    (conv3): Conv2d(
      (conv): Sequential(
        (0): Conv2d(32, 64, kernel_size=(5, 5), stride=(2, 2), padding=(2, 2))
        (bn): BatchNorm2d(64, eps=1e-05, momentum=0.1, affine=True, track_running_stats=True)
        (rl): LeakyReLU(negative_slope=0.2)
      )
    )
    (conv4): Conv2d(
      (conv): Sequential(
        (0): Conv2d(64, 128, kernel_size=(5, 5), stride=(2, 2), padding=(2, 2))
        (bn): BatchNorm2d(128, eps=1e-05, momentum=0.1, affine=True, track_running_stats=True)
        (rl): LeakyReLU(negative_slope=0.2)
      )
    )
    (conv5): Conv2d(
      (conv): Sequential(
        (0): Conv2d(128, 256, kernel_size=(5, 5), stride=(2, 2), padding=(2, 2))
        (bn): BatchNorm2d(256, eps=1e-05, momentum=0.1, affine=True, track_running_stats=True)
        (rl): LeakyReLU(negative_slope=0.2)
      )
    )
    (conv6): Conv2d(
      (conv): Sequential(
        (0): Conv2d(256, 640, kernel_size=(5, 5), stride=(2, 2), padding=(2, 2))
        (bn): BatchNorm2d(640, eps=1e-05, momentum=0.1, affine=True, track_running_stats=True)
        (rl): LeakyReLU(negative_slope=0.2)
      )
    )
  )
  (decoder_drums): UNetDecoder(
    (deconv6_a): ConvTranspose2d(640, 256, kernel_size=(5, 5), stride=(2, 2), padding=(2, 2))
    (deconv6_b): Sequential(
      (0): BatchNorm2d(256, eps=1e-05, momentum=0.1, affine=True, track_running_stats=True)
      (1): LeakyReLU(negative_slope=0.2)
      (2): Dropout2d(p=0.5, inplace=False)
    )
    (deconv5_a): ConvTranspose2d(512, 128, kernel_size=(5, 5), stride=(2, 2), padding=(2, 2))
    (deconv5_b): Sequential(
      (0): BatchNorm2d(128, eps=1e-05, momentum=0.1, affine=True, track_running_stats=True)
      (1): LeakyReLU(negative_slope=0.2)
      (2): Dropout2d(p=0.5, inplace=False)
    )
    (deconv4_a): ConvTranspose2d(256, 64, kernel_size=(5, 5), stride=(2, 2), padding=(2, 2))
    (deconv4_b): Sequential(
      (0): BatchNorm2d(64, eps=1e-05, momentum=0.1, affine=True, track_running_stats=True)
      (1): LeakyReLU(negative_slope=0.2)
      (2): Dropout2d(p=0.5, inplace=False)
    )
    (deconv3_a): ConvTranspose2d(128, 32, kernel_size=(5, 5), stride=(2, 2), padding=(2, 2))
    (deconv3_b): Sequential(
      (0): BatchNorm2d(32, eps=1e-05, momentum=0.1, affine=True, track_running_stats=True)
      (1): LeakyReLU(negative_slope=0.2)
    )
    (deconv2_a): ConvTranspose2d(64, 16, kernel_size=(5, 5), stride=(2, 2), padding=(2, 2))
    (deconv2_b): Sequential(
      (0): BatchNorm2d(16, eps=1e-05, momentum=0.1, affine=True, track_running_stats=True)
      (1): LeakyReLU(negative_slope=0.2)
    )
    (deconv1_a): ConvTranspose2d(32, 1, kernel_size=(5, 5), stride=(2, 2), padding=(2, 2))
  )
  (decoder_bass): UNetDecoder(
    (deconv6_a): ConvTranspose2d(640, 256, kernel_size=(5, 5), stride=(2, 2), padding=(2, 2))
    (deconv6_b): Sequential(
      (0): BatchNorm2d(256, eps=1e-05, momentum=0.1, affine=True, track_running_stats=True)
      (1): LeakyReLU(negative_slope=0.2)
      (2): Dropout2d(p=0.5, inplace=False)
    )
    (deconv5_a): ConvTranspose2d(512, 128, kernel_size=(5, 5), stride=(2, 2), padding=(2, 2))
    (deconv5_b): Sequential(
      (0): BatchNorm2d(128, eps=1e-05, momentum=0.1, affine=True, track_running_stats=True)
      (1): LeakyReLU(negative_slope=0.2)
      (2): Dropout2d(p=0.5, inplace=False)
    )
    (deconv4_a): ConvTranspose2d(256, 64, kernel_size=(5, 5), stride=(2, 2), padding=(2, 2))
    (deconv4_b): Sequential(
      (0): BatchNorm2d(64, eps=1e-05, momentum=0.1, affine=True, track_running_stats=True)
      (1): LeakyReLU(negative_slope=0.2)
      (2): Dropout2d(p=0.5, inplace=False)
    )
    (deconv3_a): ConvTranspose2d(128, 32, kernel_size=(5, 5), stride=(2, 2), padding=(2, 2))
    (deconv3_b): Sequential(
      (0): BatchNorm2d(32, eps=1e-05, momentum=0.1, affine=True, track_running_stats=True)
      (1): LeakyReLU(negative_slope=0.2)
    )
    (deconv2_a): ConvTranspose2d(64, 16, kernel_size=(5, 5), stride=(2, 2), padding=(2, 2))
    (deconv2_b): Sequential(
      (0): BatchNorm2d(16, eps=1e-05, momentum=0.1, affine=True, track_running_stats=True)
      (1): LeakyReLU(negative_slope=0.2)
    )
    (deconv1_a): ConvTranspose2d(32, 1, kernel_size=(5, 5), stride=(2, 2), padding=(2, 2))
  )
  (decoder_piano): UNetDecoder(
    (deconv6_a): ConvTranspose2d(640, 256, kernel_size=(5, 5), stride=(2, 2), padding=(2, 2))
    (deconv6_b): Sequential(
      (0): BatchNorm2d(256, eps=1e-05, momentum=0.1, affine=True, track_running_stats=True)
      (1): LeakyReLU(negative_slope=0.2)
      (2): Dropout2d(p=0.5, inplace=False)
    )
    (deconv5_a): ConvTranspose2d(512, 128, kernel_size=(5, 5), stride=(2, 2), padding=(2, 2))
    (deconv5_b): Sequential(
      (0): BatchNorm2d(128, eps=1e-05, momentum=0.1, affine=True, track_running_stats=True)
      (1): LeakyReLU(negative_slope=0.2)
      (2): Dropout2d(p=0.5, inplace=False)
    )
    (deconv4_a): ConvTranspose2d(256, 64, kernel_size=(5, 5), stride=(2, 2), padding=(2, 2))
    (deconv4_b): Sequential(
      (0): BatchNorm2d(64, eps=1e-05, momentum=0.1, affine=True, track_running_stats=True)
      (1): LeakyReLU(negative_slope=0.2)
      (2): Dropout2d(p=0.5, inplace=False)
    )
    (deconv3_a): ConvTranspose2d(128, 32, kernel_size=(5, 5), stride=(2, 2), padding=(2, 2))
    (deconv3_b): Sequential(
      (0): BatchNorm2d(32, eps=1e-05, momentum=0.1, affine=True, track_running_stats=True)
      (1): LeakyReLU(negative_slope=0.2)
    )
    (deconv2_a): ConvTranspose2d(64, 16, kernel_size=(5, 5), stride=(2, 2), padding=(2, 2))
    (deconv2_b): Sequential(
      (0): BatchNorm2d(16, eps=1e-05, momentum=0.1, affine=True, track_running_stats=True)
      (1): LeakyReLU(negative_slope=0.2)
    )
    (deconv1_a): ConvTranspose2d(32, 1, kernel_size=(5, 5), stride=(2, 2), padding=(2, 2))
  )
  (decoder_guitar): UNetDecoder(
    (deconv6_a): ConvTranspose2d(640, 256, kernel_size=(5, 5), stride=(2, 2), padding=(2, 2))
    (deconv6_b): Sequential(
      (0): BatchNorm2d(256, eps=1e-05, momentum=0.1, affine=True, track_running_stats=True)
      (1): LeakyReLU(negative_slope=0.2)
      (2): Dropout2d(p=0.5, inplace=False)
    )
    (deconv5_a): ConvTranspose2d(512, 128, kernel_size=(5, 5), stride=(2, 2), padding=(2, 2))
    (deconv5_b): Sequential(
      (0): BatchNorm2d(128, eps=1e-05, momentum=0.1, affine=True, track_running_stats=True)
      (1): LeakyReLU(negative_slope=0.2)
      (2): Dropout2d(p=0.5, inplace=False)
    )
    (deconv4_a): ConvTranspose2d(256, 64, kernel_size=(5, 5), stride=(2, 2), padding=(2, 2))
    (deconv4_b): Sequential(
      (0): BatchNorm2d(64, eps=1e-05, momentum=0.1, affine=True, track_running_stats=True)
      (1): LeakyReLU(negative_slope=0.2)
      (2): Dropout2d(p=0.5, inplace=False)
    )
    (deconv3_a): ConvTranspose2d(128, 32, kernel_size=(5, 5), stride=(2, 2), padding=(2, 2))
    (deconv3_b): Sequential(
      (0): BatchNorm2d(32, eps=1e-05, momentum=0.1, affine=True, track_running_stats=True)
      (1): LeakyReLU(negative_slope=0.2)
    )
    (deconv2_a): ConvTranspose2d(64, 16, kernel_size=(5, 5), stride=(2, 2), padding=(2, 2))
    (deconv2_b): Sequential(
      (0): BatchNorm2d(16, eps=1e-05, momentum=0.1, affine=True, track_running_stats=True)
      (1): LeakyReLU(negative_slope=0.2)
    )
    (deconv1_a): ConvTranspose2d(32, 1, kernel_size=(5, 5), stride=(2, 2), padding=(2, 2))
  )
  (decoder_residuals): UNetDecoder(
    (deconv6_a): ConvTranspose2d(640, 256, kernel_size=(5, 5), stride=(2, 2), padding=(2, 2))
    (deconv6_b): Sequential(
      (0): BatchNorm2d(256, eps=1e-05, momentum=0.1, affine=True, track_running_stats=True)
      (1): LeakyReLU(negative_slope=0.2)
      (2): Dropout2d(p=0.5, inplace=False)
    )
    (deconv5_a): ConvTranspose2d(512, 128, kernel_size=(5, 5), stride=(2, 2), padding=(2, 2))
    (deconv5_b): Sequential(
      (0): BatchNorm2d(128, eps=1e-05, momentum=0.1, affine=True, track_running_stats=True)
      (1): LeakyReLU(negative_slope=0.2)
      (2): Dropout2d(p=0.5, inplace=False)
    )
    (deconv4_a): ConvTranspose2d(256, 64, kernel_size=(5, 5), stride=(2, 2), padding=(2, 2))
    (deconv4_b): Sequential(
      (0): BatchNorm2d(64, eps=1e-05, momentum=0.1, affine=True, track_running_stats=True)
      (1): LeakyReLU(negative_slope=0.2)
      (2): Dropout2d(p=0.5, inplace=False)
    )
    (deconv3_a): ConvTranspose2d(128, 32, kernel_size=(5, 5), stride=(2, 2), padding=(2, 2))
    (deconv3_b): Sequential(
      (0): BatchNorm2d(32, eps=1e-05, momentum=0.1, affine=True, track_running_stats=True)
      (1): LeakyReLU(negative_slope=0.2)
    )
    (deconv2_a): ConvTranspose2d(64, 16, kernel_size=(5, 5), stride=(2, 2), padding=(2, 2))
    (deconv2_b): Sequential(
      (0): BatchNorm2d(16, eps=1e-05, momentum=0.1, affine=True, track_running_stats=True)
      (1): LeakyReLU(negative_slope=0.2)
    )
    (deconv1_a): ConvTranspose2d(32, 1, kernel_size=(5, 5), stride=(2, 2), padding=(2, 2))
  )
  (to1d): To1D640(
    (to1d): To1D640timefreq(
      (fc1): Linear(in_features=3200, out_features=640, bias=True)
    )
  )
  (sigmoid): Sigmoid()
)
[2023-11-07 01:11:20,273][source.train][INFO] - [rank: 0] Instantiating callbacks...
[2023-11-07 01:11:20,273][utils.instantiators][INFO] - [rank: 0] Instantiating callback <pytorch_lightning.callbacks.ModelCheckpoint>
[2023-11-07 01:11:20,281][utils.instantiators][INFO] - [rank: 0] Instantiating callback <pytorch_lightning.callbacks.EarlyStopping>
…
