…
=== Using cuda(model.triplet.model_triplet_2d_csn640de1_to1d640). ===


=== Using cuda(model.AE.model_ae). ===


=== Using cuda(model.demucs.model_demucs). ===


=== Using cuda(model.demucs.model_hdemucs). ===


=== Using cuda(model.jnet.model_jnet_attention). ===

[2023-11-11 15:44:45,229][torch.distributed.nn.jit.instantiator][INFO] - Created a temporary directory at /tmp/tmpbmovrfdx
[2023-11-11 15:44:45,230][torch.distributed.nn.jit.instantiator][INFO] - Writing /tmp/tmpbmovrfdx/_remote_module_non_scriptable.py
TripletModelZume(
  (encoder): UNetEncoder(
    (TCB1): TwoConvBlock(
      (conv1): Conv2d(1, 32, kernel_size=(3, 3), stride=(1, 1), padding=same)
      (bn1): BatchNorm2d(32, eps=1e-05, momentum=0.1, affine=True, track_running_stats=True)
      (rl): ReLU()
      (conv2): Conv2d(32, 32, kernel_size=(3, 3), stride=(1, 1), padding=same)
      (bn2): BatchNorm2d(32, eps=1e-05, momentum=0.1, affine=True, track_running_stats=True)
    )
    (TCB2): TwoConvBlock(
      (conv1): Conv2d(32, 64, kernel_size=(3, 3), stride=(1, 1), padding=same)
      (bn1): BatchNorm2d(64, eps=1e-05, momentum=0.1, affine=True, track_running_stats=True)
      (rl): ReLU()
      (conv2): Conv2d(64, 64, kernel_size=(3, 3), stride=(1, 1), padding=same)
      (bn2): BatchNorm2d(64, eps=1e-05, momentum=0.1, affine=True, track_running_stats=True)
    )
    (TCB3): TwoConvBlock(
      (conv1): Conv2d(64, 128, kernel_size=(3, 3), stride=(1, 1), padding=same)
      (bn1): BatchNorm2d(128, eps=1e-05, momentum=0.1, affine=True, track_running_stats=True)
      (rl): ReLU()
      (conv2): Conv2d(128, 128, kernel_size=(3, 3), stride=(1, 1), padding=same)
      (bn2): BatchNorm2d(128, eps=1e-05, momentum=0.1, affine=True, track_running_stats=True)
    )
    (TCB4): TwoConvBlock(
      (conv1): Conv2d(128, 256, kernel_size=(3, 3), stride=(1, 1), padding=same)
      (bn1): BatchNorm2d(256, eps=1e-05, momentum=0.1, affine=True, track_running_stats=True)
      (rl): ReLU()
      (conv2): Conv2d(256, 256, kernel_size=(3, 3), stride=(1, 1), padding=same)
      (bn2): BatchNorm2d(256, eps=1e-05, momentum=0.1, affine=True, track_running_stats=True)
    )
    (TCB5): TwoConvBlock(
      (conv1): Conv2d(256, 512, kernel_size=(3, 3), stride=(1, 1), padding=same)
      (bn1): BatchNorm2d(512, eps=1e-05, momentum=0.1, affine=True, track_running_stats=True)
      (rl): ReLU()
      (conv2): Conv2d(512, 512, kernel_size=(3, 3), stride=(1, 1), padding=same)
      (bn2): BatchNorm2d(512, eps=1e-05, momentum=0.1, affine=True, track_running_stats=True)
    )
    (maxpool): MaxPool2d(kernel_size=5, stride=2, padding=2, dilation=1, ceil_mode=False)
  )
  (decoder): UNetDecoder(
    (deconv5_a): ConvTranspose2d(512, 256, kernel_size=(5, 5), stride=(2, 2), padding=(2, 2))
    (deconv5_b): Sequential(
      (0): BatchNorm2d(256, eps=1e-05, momentum=0.1, affine=True, track_running_stats=True)
      (1): LeakyReLU(negative_slope=0.2)
      (2): Dropout2d(p=0.5, inplace=False)
    )
    (deconv4_a): ConvTranspose2d(512, 128, kernel_size=(5, 5), stride=(2, 2), padding=(2, 2))
    (deconv4_b): Sequential(
      (0): BatchNorm2d(128, eps=1e-05, momentum=0.1, affine=True, track_running_stats=True)
      (1): LeakyReLU(negative_slope=0.2)
      (2): Dropout2d(p=0.5, inplace=False)
    )
    (deconv3_a): ConvTranspose2d(256, 64, kernel_size=(5, 5), stride=(2, 2), padding=(2, 2))
    (deconv3_b): Sequential(
      (0): BatchNorm2d(64, eps=1e-05, momentum=0.1, affine=True, track_running_stats=True)
      (1): LeakyReLU(negative_slope=0.2)
      (2): Dropout2d(p=0.5, inplace=False)
    )
    (deconv2_a): ConvTranspose2d(128, 32, kernel_size=(5, 5), stride=(2, 2), padding=(2, 2))
    (deconv2_b): Sequential(
      (0): BatchNorm2d(32, eps=1e-05, momentum=0.1, affine=True, track_running_stats=True)
      (1): LeakyReLU(negative_slope=0.2)
    )
    (deconv1_a): ConvTranspose2d(64, 1, kernel_size=(5, 5), stride=(2, 2), padding=(2, 2))
  )
  (to1d): To1D640(
    (to1d): To1D640timefreq(
      (fc1): Linear(in_features=8704, out_features=640, bias=True)
    )
  )
  (sigmoid): Sigmoid()
)
[2023-11-11 15:44:46,835][source.train][INFO] - [rank: 0] Instantiating callbacks...
[2023-11-11 15:44:46,836][utils.instantiators][INFO] - [rank: 0] Instantiating callback <pytorch_lightning.callbacks.ModelCheckpoint>
[2023-11-11 15:44:46,845][utils.instantiators][INFO] - [rank: 0] Instantiating callback <pytorch_lightning.callbacks.EarlyStopping>
…
