…
=== Using cuda(model.triplet.model_nnet). ===


=== Using cuda(model.AE.model_ae). ===


=== Using cuda(model.demucs.model_demucs). ===


=== Using cuda(model.demucs.model_hdemucs). ===


=== Using cuda(model.jnet.model_jnet_128_embnet). ===


=== Using cuda(model.jnet.model_jnet_attention). ===

[2023-10-19 03:11:18,404][torch.distributed.nn.jit.instantiator][INFO] - Created a temporary directory at /tmp/tmpuerm8toj
[2023-10-19 03:11:18,405][torch.distributed.nn.jit.instantiator][INFO] - Writing /tmp/tmpuerm8toj/_remote_module_non_scriptable.py
JNet128Attention(
  (encoder): UNetEncoder(
    (conv1): Conv2d(
      (att): Sequential(
        (0): Conv2d(1, 1, kernel_size=(1, 1), stride=(1, 1), padding=same)
        (1): GELU(approximate=none)
        (2): Conv2d(1, 1, kernel_size=(1, 1), stride=(1, 1), padding=same)
        (3): Sigmoid()
      )
      (conv): Sequential(
        (0): Conv2d(1, 16, kernel_size=(5, 5), stride=(2, 2), padding=(2, 2))
        (1): BatchNorm2d(16, eps=1e-05, momentum=0.1, affine=True, track_running_stats=True)
        (2): LeakyReLU(negative_slope=0.2)
      )
    )
    (conv2): Conv2d(
      (att): Sequential(
        (0): Conv2d(16, 16, kernel_size=(1, 1), stride=(1, 1), padding=same)
        (1): GELU(approximate=none)
        (2): Conv2d(16, 16, kernel_size=(1, 1), stride=(1, 1), padding=same)
        (3): Sigmoid()
      )
      (conv): Sequential(
        (0): Conv2d(16, 32, kernel_size=(5, 5), stride=(2, 2), padding=(2, 2))
        (1): BatchNorm2d(32, eps=1e-05, momentum=0.1, affine=True, track_running_stats=True)
        (2): LeakyReLU(negative_slope=0.2)
      )
    )
    (conv3): Conv2d(
      (att): Sequential(
        (0): Conv2d(32, 32, kernel_size=(1, 1), stride=(1, 1), padding=same)
        (1): GELU(approximate=none)
        (2): Conv2d(32, 32, kernel_size=(1, 1), stride=(1, 1), padding=same)
        (3): Sigmoid()
      )
      (conv): Sequential(
        (0): Conv2d(32, 64, kernel_size=(5, 5), stride=(2, 2), padding=(2, 2))
        (1): BatchNorm2d(64, eps=1e-05, momentum=0.1, affine=True, track_running_stats=True)
        (2): LeakyReLU(negative_slope=0.2)
      )
    )
    (conv4): Conv2d(
      (att): Sequential(
        (0): Conv2d(64, 64, kernel_size=(1, 1), stride=(1, 1), padding=same)
        (1): GELU(approximate=none)
        (2): Conv2d(64, 64, kernel_size=(1, 1), stride=(1, 1), padding=same)
        (3): Sigmoid()
      )
      (conv): Sequential(
        (0): Conv2d(64, 128, kernel_size=(5, 5), stride=(2, 2), padding=(2, 2))
        (1): BatchNorm2d(128, eps=1e-05, momentum=0.1, affine=True, track_running_stats=True)
        (2): LeakyReLU(negative_slope=0.2)
      )
    )
    (conv5): Conv2d(
      (att): Sequential(
        (0): Conv2d(128, 128, kernel_size=(1, 1), stride=(1, 1), padding=same)
        (1): GELU(approximate=none)
        (2): Conv2d(128, 128, kernel_size=(1, 1), stride=(1, 1), padding=same)
        (3): Sigmoid()
      )
      (conv): Sequential(
        (0): Conv2d(128, 256, kernel_size=(5, 5), stride=(2, 2), padding=(2, 2))
        (1): BatchNorm2d(256, eps=1e-05, momentum=0.1, affine=True, track_running_stats=True)
        (2): LeakyReLU(negative_slope=0.2)
      )
    )
    (conv6): Conv2d(
      (att): Sequential(
        (0): Conv2d(256, 256, kernel_size=(1, 1), stride=(1, 1), padding=same)
        (1): GELU(approximate=none)
        (2): Conv2d(256, 256, kernel_size=(1, 1), stride=(1, 1), padding=same)
        (3): Sigmoid()
      )
      (conv): Sequential(
        (0): Conv2d(256, 512, kernel_size=(5, 5), stride=(2, 2), padding=(2, 2))
      )
    )
  )
  (embnet_bass): To1D(
    (to1d): To1D128timefreq(
      (fc1): Linear(in_features=8704, out_features=128, bias=True)
      (attention): Sequential(
        (0): Linear(in_features=8704, out_features=8704, bias=True)
        (1): GELU(approximate=none)
        (2): Linear(in_features=8704, out_features=8704, bias=True)
        (3): Sigmoid()
      )
    )
    (recog): Linear(in_features=128, out_features=1, bias=True)
  )
  (sigmoid): Sigmoid()
)
[2023-10-19 03:11:18,452][source.train][INFO] - [rank: 0] Instantiating callbacks...
[2023-10-19 03:11:18,452][utils.instantiators][INFO] - [rank: 0] Instantiating callback <pytorch_lightning.callbacks.ModelCheckpoint>
[2023-10-19 03:11:18,456][utils.instantiators][INFO] - [rank: 0] Instantiating callback <pytorch_lightning.callbacks.EarlyStopping>
…
