…
=== Using cuda(model.triplet.model_nnet). ===


=== Using cuda(model.AE.model_ae). ===


=== Using cuda(model.demucs.model_demucs). ===


=== Using cuda(model.demucs.model_hdemucs). ===


=== Using cuda(model.jnet.model_jnet_128_embnet). ===


=== Using cuda(model.jnet.model_jnet_attention). ===

[2023-10-26 12:06:34,751][torch.distributed.nn.jit.instantiator][INFO] - Created a temporary directory at /tmp/tmpiwld5xc7
[2023-10-26 12:06:34,752][torch.distributed.nn.jit.instantiator][INFO] - Writing /tmp/tmpiwld5xc7/_remote_module_non_scriptable.py
JNet128Embnet(
  (encoder): UNetEncoder(
    (conv1): Conv2d(
      (conv): Sequential(
        (0): Conv2d(1, 16, kernel_size=(5, 5), stride=(2, 2), padding=(2, 2))
        (1): BatchNorm2d(16, eps=1e-05, momentum=0.1, affine=True, track_running_stats=True)
        (2): LeakyReLU(negative_slope=0.2)
      )
    )
    (conv2): Conv2d(
      (conv): Sequential(
        (0): Conv2d(16, 32, kernel_size=(5, 5), stride=(2, 2), padding=(2, 2))
        (1): BatchNorm2d(32, eps=1e-05, momentum=0.1, affine=True, track_running_stats=True)
        (2): LeakyReLU(negative_slope=0.2)
      )
    )
    (conv3): Conv2d(
      (conv): Sequential(
        (0): Conv2d(32, 64, kernel_size=(5, 5), stride=(2, 2), padding=(2, 2))
        (1): BatchNorm2d(64, eps=1e-05, momentum=0.1, affine=True, track_running_stats=True)
        (2): LeakyReLU(negative_slope=0.2)
      )
    )
    (conv4): Conv2d(
      (conv): Sequential(
        (0): Conv2d(64, 128, kernel_size=(5, 5), stride=(2, 2), padding=(2, 2))
        (1): BatchNorm2d(128, eps=1e-05, momentum=0.1, affine=True, track_running_stats=True)
        (2): LeakyReLU(negative_slope=0.2)
      )
    )
    (conv5): Conv2d(
      (conv): Sequential(
        (0): Conv2d(128, 256, kernel_size=(5, 5), stride=(2, 2), padding=(2, 2))
        (1): BatchNorm2d(256, eps=1e-05, momentum=0.1, affine=True, track_running_stats=True)
        (2): LeakyReLU(negative_slope=0.2)
      )
    )
    (conv6): Conv2d(
      (conv): Sequential(
        (0): Conv2d(256, 512, kernel_size=(5, 5), stride=(2, 2), padding=(2, 2))
      )
    )
  )
  (embnet_residuals): To1D(
    (recog): Linear(in_features=128, out_features=1, bias=True)
  )
  (sigmoid): Sigmoid()
)
[2023-10-26 12:06:34,802][source.train][INFO] - [rank: 0] Instantiating callbacks...
[2023-10-26 12:06:34,802][utils.instantiators][INFO] - [rank: 0] Instantiating callback <pytorch_lightning.callbacks.ModelCheckpoint>
[2023-10-26 12:06:34,808][utils.instantiators][INFO] - [rank: 0] Instantiating callback <pytorch_lightning.callbacks.EarlyStopping>
…
